…
    "3- To prevent overfitting, I added dropout layers after each convolutional layer. For the first three layers the rate is 0.2, and 0.3 for the fourth and the last layer.\n",
    "\n",
    "4- Added also max pooling layers to reduce dimensionality. \n",
    "\n",
    "5- Finally, a dense layer with softmax activation function."
   ]
  },
  {
   "cell_type": "code",
   "execution_count": 55,
   "metadata": {},
   "outputs": [
    {
     "name": "stdout",
     "output_type": "stream",
     "text": [
      "_________________________________________________________________\n",
      "Layer (type)                 Output Shape              Param #   \n",
      "=================================================================\n",
      "conv2d_9 (Conv2D)            (None, 224, 224, 8)       104       \n",
      "_________________________________________________________________\n",
      "max_pooling2d_9 (MaxPooling2 (None, 112, 112, 8)       0         \n",
      "_________________________________________________________________\n",
      "dropout_9 (Dropout)          (None, 112, 112, 8)       0         \n",
      "_________________________________________________________________\n",
      "conv2d_10 (Conv2D)           (None, 112, 112, 16)      528       \n",
      "_________________________________________________________________\n",
      "max_pooling2d_10 (MaxPooling (None, 56, 56, 16)        0         \n",
      "_________________________________________________________________\n",
      "dropout_10 (Dropout)         (None, 56, 56, 16)        0         \n",
      "_________________________________________________________________\n",
      "conv2d_11 (Conv2D)           (None, 56, 56, 32)        2080      \n",
      "_________________________________________________________________\n",
      "max_pooling2d_11 (MaxPooling (None, 28, 28, 32)        0         \n",
      "_________________________________________________________________\n",
      "dropout_11 (Dropout)         (None, 28, 28, 32)        0         \n",
      "_________________________________________________________________\n",
      "conv2d_12 (Conv2D)           (None, 28, 28, 65)        8385      \n",
      "_________________________________________________________________\n",
      "max_pooling2d_12 (MaxPooling (None, 14, 14, 65)        0         \n",
      "_________________________________________________________________\n",
      "dropout_12 (Dropout)         (None, 14, 14, 65)        0         \n",
      "_________________________________________________________________\n",
      "global_average_pooling2d_5 ( (None, 65)                0         \n",
      "_________________________________________________________________\n",
      "dense_5 (Dense)              (None, 133)               8778      \n",
      "=================================================================\n",
      "Total params: 19,875\n",
      "Trainable params: 19,875\n",
      "Non-trainable params: 0\n",
      "_________________________________________________________________\n"
     ]
    }
   ],
   "source": [
    "from keras.layers import Conv2D, MaxPooling2D, GlobalAveragePooling2D\n",
    "from keras.layers import Dropout, Flatten, Dense\n",
…
